…
Block 1 ['Split', 'Conv_8_1', 'Concat', 'Id', 'Id', 'No', 'None', 'Id', 'No', 'No', 'Id']
Block 2 ['Split', 'Id', 'Add', 'Conv_6_2', 'Id', 'No', 'Concat', 'Id', 'Id', 'No', 'Id']
FPNAS Optimizing Architecture
Block 0 ['Split', 'Id', 'Add', 'Conv_6_2', 'Id', 'No', 'Concat', 'Id', 'Id', 'No', 'Id']
Final Model 
Model: "functional_215"
__________________________________________________________________________________________________
Layer (type)                    Output Shape         Param #     Connected to                     
==================================================================================================
input_1 (InputLayer)            [(None, 224, 224, 3) 0                                            
__________________________________________________________________________________________________
split_66 (Split)                [(None, 112, 224, 3) 0           input_1[0][0]                    
__________________________________________________________________________________________________
conv2d_101 (Conv2D)             (None, 56, 112, 24)  648         split_66[0][1]                   
__________________________________________________________________________________________________
inverted_residual_107 (Inverted (None, 56, 112, 24)  888         split_66[0][0]                   
__________________________________________________________________________________________________
batch_normalization_101 (BatchN (None, 56, 112, 24)  96          conv2d_101[0][0]                 
__________________________________________________________________________________________________
conv2d_102 (Conv2D)             (None, 56, 112, 24)  648         split_66[0][1]                   
__________________________________________________________________________________________________
add_123 (Add)                   (None, 56, 112, 24)  0           inverted_residual_107[0][0]      
                                                                 batch_normalization_101[0][0]    
__________________________________________________________________________________________________
batch_normalization_102 (BatchN (None, 56, 112, 24)  96          conv2d_102[0][0]                 
__________________________________________________________________________________________________
concatenate_66 (Concatenate)    (None, 112, 112, 24) 0           add_123[0][0]                    
                                                                 batch_normalization_102[0][0]    
__________________________________________________________________________________________________
flatten_107 (Flatten)           (None, 301056)       0           concatenate_66[0][0]             
__________________________________________________________________________________________________
dense_108 (Dense)               (None, 1)            301057      flatten_107[0][0]                
==================================================================================================
Total params: 303,433
Trainable params: 303,217
Non-trainable params: 216
__________________________________________________________________________________________________
FPNAS Optimizing Architecture
Block 0 ['Split', 'Conv_8_2', 'Concat', 'Id', 'Id', 'No', 'None', 'Id', 'No', 'No', 'Id']
Final Model 
Model: "functional_447"
__________________________________________________________________________________________________
Layer (type)                    Output Shape         Param #     Connected to                     
==================================================================================================
input_10 (InputLayer)           [(None, 224, 224, 3) 0                                            
__________________________________________________________________________________________________
inverted_residual_228 (Inverted (None, 112, 112, 24) 1152        input_10[0][0]                   
__________________________________________________________________________________________________
split_144 (Split)               [(None, 56, 112, 24) 0           inverted_residual_228[0][0]      
__________________________________________________________________________________________________
concatenate_144 (Concatenate)   (None, 112, 112, 24) 0           split_144[0][0]                  
                                                                 split_144[0][1]                  
__________________________________________________________________________________________________
flatten_223 (Flatten)           (None, 301056)       0           concatenate_144[0][0]            
__________________________________________________________________________________________________
dense_233 (Dense)               (None, 1)            301057      flatten_223[0][0]                
==================================================================================================
Total params: 302,209
Trainable params: 302,065
Non-trainable params: 144
__________________________________________________________________________________________________
FPNAS Optimizing Architecture
Block 0 ['Split', 'Id', 'Add', 'Conv_6_2', 'Id', 'No', 'Concat', 'Id', 'Id', 'No', 'Id']
…
Block 3 ['Add', 'Id', 'Add', 'Id', 'No', 'Id', 'Add', 'Id', 'No', 'Id', 'Conv_6_1']
Block 4 ['Split', 'Id', 'Concat', 'Conv_8_1', 'Id', 'No', 'Add', 'Id', 'No', 'Id', 'Id']
Block 5 ['Split', 'Id', 'Add', 'Conv_4_2', 'Id', 'No', 'Concat', 'Id', 'Id', 'No', 'Id']
Final Model 
Model: "functional_1733"
__________________________________________________________________________________________________
Layer (type)                    Output Shape         Param #     Connected to                     
==================================================================================================
input_11 (InputLayer)           [(None, 224, 224, 3) 0                                            
__________________________________________________________________________________________________
split_2688 (Split)              [(None, 112, 224, 3) 0           input_11[0][0]                   
__________________________________________________________________________________________________
conv2d_3689 (Conv2D)            (None, 56, 112, 32)  864         split_2688[0][1]                 
__________________________________________________________________________________________________
inverted_residual_4081 (Inverte (None, 56, 112, 32)  1064        split_2688[0][0]                 
__________________________________________________________________________________________________
batch_normalization_3689 (Batch (None, 56, 112, 32)  128         conv2d_3689[0][0]                
__________________________________________________________________________________________________
conv2d_3690 (Conv2D)            (None, 56, 112, 32)  864         split_2688[0][1]                 
__________________________________________________________________________________________________
add_4406 (Add)                  (None, 56, 112, 32)  0           inverted_residual_4081[0][0]     
                                                                 batch_normalization_3689[0][0]   
__________________________________________________________________________________________________
batch_normalization_3690 (Batch (None, 56, 112, 32)  128         conv2d_3690[0][0]                
__________________________________________________________________________________________________
concatenate_2688 (Concatenate)  (None, 112, 112, 32) 0           add_4406[0][0]                   
                                                                 batch_normalization_3690[0][0]   
__________________________________________________________________________________________________
split_2689 (Split)              [(None, 56, 112, 32) 0           concatenate_2688[0][0]           
__________________________________________________________________________________________________
add_4407 (Add)                  (None, 56, 112, 32)  0           split_2689[0][0]                 
                                                                 split_2689[0][1]                 
__________________________________________________________________________________________________
concatenate_2689 (Concatenate)  (None, 112, 112, 32) 0           add_4407[0][0]                   
                                                                 split_2689[0][1]                 
__________________________________________________________________________________________________
inverted_residual_4082 (Inverte (None, 56, 56, 32)   15680       concatenate_2689[0][0]           
__________________________________________________________________________________________________
inverted_residual_4083 (Inverte (None, 28, 28, 64)   21952       inverted_residual_4082[0][0]     
__________________________________________________________________________________________________
split_2690 (Split)              [(None, 14, 28, 64), 0           inverted_residual_4083[0][0]     
__________________________________________________________________________________________________
conv2d_3691 (Conv2D)            (None, 28, 28, 64)   18432       inverted_residual_4082[0][0]     
__________________________________________________________________________________________________
concatenate_2690 (Concatenate)  (None, 28, 28, 64)   0           split_2690[0][0]                 
                                                                 split_2690[0][1]                 
__________________________________________________________________________________________________
batch_normalization_3691 (Batch (None, 28, 28, 64)   256         conv2d_3691[0][0]                
__________________________________________________________________________________________________
add_4408 (Add)                  (None, 28, 28, 64)   0           concatenate_2690[0][0]           
                                                                 batch_normalization_3691[0][0]   
__________________________________________________________________________________________________
add_4409 (Add)                  (None, 28, 28, 64)   0           add_4408[0][0]                   
                                                                 add_4408[0][0]                   
__________________________________________________________________________________________________
add_4410 (Add)                  (None, 28, 28, 64)   0           add_4409[0][0]                   
                                                                 add_4408[0][0]                   
__________________________________________________________________________________________________
inverted_residual_4084 (Inverte (None, 28, 28, 64)   55936       add_4410[0][0]                   
__________________________________________________________________________________________________
split_2691 (Split)              [(None, 14, 28, 64), 0           inverted_residual_4084[0][0]     
__________________________________________________________________________________________________
conv2d_3692 (Conv2D)            (None, 14, 28, 128)  73728       split_2691[0][1]                 
__________________________________________________________________________________________________
inverted_residual_4085 (Inverte (None, 14, 28, 128)  107520      split_2691[0][0]                 
__________________________________________________________________________________________________
batch_normalization_3692 (Batch (None, 14, 28, 128)  512         conv2d_3692[0][0]                
__________________________________________________________________________________________________
conv2d_3693 (Conv2D)            (None, 28, 28, 128)  73728       inverted_residual_4084[0][0]     
__________________________________________________________________________________________________
concatenate_2691 (Concatenate)  (None, 28, 28, 128)  0           inverted_residual_4085[0][0]     
                                                                 batch_normalization_3692[0][0]   
__________________________________________________________________________________________________
batch_normalization_3693 (Batch (None, 28, 28, 128)  512         conv2d_3693[0][0]                
__________________________________________________________________________________________________
add_4411 (Add)                  (None, 28, 28, 128)  0           concatenate_2691[0][0]           
                                                                 batch_normalization_3693[0][0]   
__________________________________________________________________________________________________
split_2692 (Split)              [(None, 14, 28, 128) 0           add_4411[0][0]                   
__________________________________________________________________________________________________
conv2d_3694 (Conv2D)            (None, 7, 14, 128)   147456      split_2692[0][1]                 
__________________________________________________________________________________________________
inverted_residual_4086 (Inverte (None, 7, 14, 128)   140288      split_2692[0][0]                 
__________________________________________________________________________________________________
batch_normalization_3694 (Batch (None, 7, 14, 128)   512         conv2d_3694[0][0]                
__________________________________________________________________________________________________
conv2d_3695 (Conv2D)            (None, 7, 14, 128)   147456      split_2692[0][1]                 
__________________________________________________________________________________________________
add_4412 (Add)                  (None, 7, 14, 128)   0           inverted_residual_4086[0][0]     
                                                                 batch_normalization_3694[0][0]   
__________________________________________________________________________________________________
batch_normalization_3695 (Batch (None, 7, 14, 128)   512         conv2d_3695[0][0]                
__________________________________________________________________________________________________
concatenate_2692 (Concatenate)  (None, 14, 14, 128)  0           add_4412[0][0]                   
                                                                 batch_normalization_3695[0][0]   
__________________________________________________________________________________________________
flatten_866 (Flatten)           (None, 25088)        0           concatenate_2692[0][0]           
__________________________________________________________________________________________________
dense_877 (Dense)               (None, 1)            25089       flatten_866[0][0]                
==================================================================================================
Total params: 832,617
Trainable params: 823,201
Non-trainable params: 9,416
__________________________________________________________________________________________________
FPNAS Optimizing Architecture
Block 0 ['Split', 'Id', 'Concat', 'Conv_8_2', 'Id', 'No', 'None', 'Id', 'No', 'No', 'Id']
…
Block 3 ['Add', 'Id', 'Add', 'Id', 'No', 'Id', 'Add', 'Id', 'No', 'Id', 'Conv_4_1']
Block 4 ['Add', 'Id', 'Add', 'Conv_4_1', 'No', 'Id', 'Add', 'Id', 'No', 'Id', 'Id']
Block 5 ['Split', 'Id', 'Add', 'Id', 'Id', 'No', 'Concat', 'Conv_8_2', 'Id', 'No', 'Id']
Final Model 
Model: "functional_1285"
__________________________________________________________________________________________________
Layer (type)                    Output Shape         Param #     Connected to                     
==================================================================================================
input_2 (InputLayer)            [(None, 224, 224, 3) 0                                            
__________________________________________________________________________________________________
add_4794 (Add)                  (None, 224, 224, 3)  0           input_2[0][0]                    
                                                                 input_2[0][0]                    
__________________________________________________________________________________________________
conv2d_3262 (Conv2D)            (None, 112, 112, 32) 864         input_2[0][0]                    
__________________________________________________________________________________________________
inverted_residual_3858 (Inverte (None, 112, 112, 32) 1376        add_4794[0][0]                   
__________________________________________________________________________________________________
batch_normalization_3262 (Batch (None, 112, 112, 32) 128         conv2d_3262[0][0]                
__________________________________________________________________________________________________
add_4795 (Add)                  (None, 112, 112, 32) 0           inverted_residual_3858[0][0]     
                                                                 batch_normalization_3262[0][0]   
__________________________________________________________________________________________________
split_1903 (Split)              [(None, 56, 112, 32) 0           add_4795[0][0]                   
__________________________________________________________________________________________________
concatenate_1903 (Concatenate)  (None, 112, 112, 32) 0           split_1903[0][0]                 
                                                                 split_1903[0][1]                 
__________________________________________________________________________________________________
add_4796 (Add)                  (None, 112, 112, 32) 0           concatenate_1903[0][0]           
                                                                 add_4795[0][0]                   
__________________________________________________________________________________________________
inverted_residual_3859 (Inverte (None, 56, 56, 32)   10496       add_4796[0][0]                   
__________________________________________________________________________________________________
split_1904 (Split)              [(None, 28, 56, 32), 0           inverted_residual_3859[0][0]     
__________________________________________________________________________________________________
conv2d_3263 (Conv2D)            (None, 14, 28, 64)   18432       split_1904[0][1]                 
__________________________________________________________________________________________________
inverted_residual_3860 (Inverte (None, 14, 28, 64)   29184       split_1904[0][0]                 
__________________________________________________________________________________________________
batch_normalization_3263 (Batch (None, 14, 28, 64)   256         conv2d_3263[0][0]                
__________________________________________________________________________________________________
conv2d_3264 (Conv2D)            (None, 14, 28, 64)   18432       split_1904[0][1]                 
__________________________________________________________________________________________________
add_4797 (Add)                  (None, 14, 28, 64)   0           inverted_residual_3860[0][0]     
                                                                 batch_normalization_3263[0][0]   
__________________________________________________________________________________________________
batch_normalization_3264 (Batch (None, 14, 28, 64)   256         conv2d_3264[0][0]                
__________________________________________________________________________________________________
concatenate_1904 (Concatenate)  (None, 28, 28, 64)   0           add_4797[0][0]                   
                                                                 batch_normalization_3264[0][0]   
__________________________________________________________________________________________________
add_4798 (Add)                  (None, 28, 28, 64)   0           concatenate_1904[0][0]           
                                                                 concatenate_1904[0][0]           
__________________________________________________________________________________________________
add_4799 (Add)                  (None, 28, 28, 64)   0           add_4798[0][0]                   
                                                                 concatenate_1904[0][0]           
__________________________________________________________________________________________________
inverted_residual_3861 (Inverte (None, 28, 28, 64)   37376       add_4799[0][0]                   
__________________________________________________________________________________________________
conv2d_3265 (Conv2D)            (None, 28, 28, 128)  73728       inverted_residual_3861[0][0]     
__________________________________________________________________________________________________
inverted_residual_3862 (Inverte (None, 28, 28, 128)  54016       inverted_residual_3861[0][0]     
__________________________________________________________________________________________________
batch_normalization_3265 (Batch (None, 28, 28, 128)  512         conv2d_3265[0][0]                
__________________________________________________________________________________________________
conv2d_3266 (Conv2D)            (None, 28, 28, 128)  73728       inverted_residual_3861[0][0]     
__________________________________________________________________________________________________
add_4800 (Add)                  (None, 28, 28, 128)  0           inverted_residual_3862[0][0]     
                                                                 batch_normalization_3265[0][0]   
__________________________________________________________________________________________________
batch_normalization_3266 (Batch (None, 28, 28, 128)  512         conv2d_3266[0][0]                
__________________________________________________________________________________________________
add_4801 (Add)                  (None, 28, 28, 128)  0           add_4800[0][0]                   
                                                                 batch_normalization_3266[0][0]   
__________________________________________________________________________________________________
split_1905 (Split)              [(None, 14, 28, 128) 0           add_4801[0][0]                   
__________________________________________________________________________________________________
add_4802 (Add)                  (None, 14, 28, 128)  0           split_1905[0][0]                 
                                                                 split_1905[0][1]                 
__________________________________________________________________________________________________
conv2d_3267 (Conv2D)            (None, 7, 14, 128)   147456      split_1905[0][1]                 
__________________________________________________________________________________________________
inverted_residual_3863 (Inverte (None, 7, 14, 128)   280064      add_4802[0][0]                   
__________________________________________________________________________________________________
batch_normalization_3267 (Batch (None, 7, 14, 128)   512         conv2d_3267[0][0]                
__________________________________________________________________________________________________
concatenate_1905 (Concatenate)  (None, 14, 14, 128)  0           inverted_residual_3863[0][0]     
                                                                 batch_normalization_3267[0][0]   
__________________________________________________________________________________________________
flatten_643 (Flatten)           (None, 25088)        0           concatenate_1905[0][0]           
__________________________________________________________________________________________________
dropout_642 (Dropout)           (None, 25088)        0           flatten_643[0][0]                
__________________________________________________________________________________________________
dense_644 (Dense)               (None, 1)            25089       dropout_642[0][0]                
==================================================================================================
Total params: 772,417
Trainable params: 762,657
Non-trainable params: 9,760
__________________________________________________________________________________________________
FPNAS Optimizing Architecture
Block 0 ['Add', 'Id', 'Add', 'Id', 'No', 'Id', 'Add', 'Conv_6_2', 'No', 'Id', 'Id']
Block 1 ['Split', 'Conv_4_2', 'Concat', 'Id', 'Id', 'No', 'Add', 'Id', 'No', 'Id', 'Id']
Block 2 ['Add', 'Id', 'Add', 'Conv_6_2', 'No', 'Id', 'None', 'Id', 'No', 'No', 'Id']
Final Model 
Model: "functional_643"
__________________________________________________________________________________________________
Layer (type)                    Output Shape         Param #     Connected to                     
==================================================================================================
input_1 (InputLayer)            [(None, 224, 224, 3) 0                                            
__________________________________________________________________________________________________
add_1218 (Add)                  (None, 224, 224, 3)  0           input_1[0][0]                    
                                                                 input_1[0][0]                    
__________________________________________________________________________________________________
conv2d_787 (Conv2D)             (None, 112, 112, 32) 864         input_1[0][0]                    
__________________________________________________________________________________________________
inverted_residual_963 (Inverted (None, 112, 112, 32) 1064        add_1218[0][0]                   
__________________________________________________________________________________________________
batch_normalization_787 (BatchN (None, 112, 112, 32) 128         conv2d_787[0][0]                 
__________________________________________________________________________________________________
add_1219 (Add)                  (None, 112, 112, 32) 0           inverted_residual_963[0][0]      
                                                                 batch_normalization_787[0][0]    
__________________________________________________________________________________________________
inverted_residual_964 (Inverted (None, 56, 56, 64)   14720       add_1219[0][0]                   
__________________________________________________________________________________________________
split_627 (Split)               [(None, 28, 56, 64), 0           inverted_residual_964[0][0]      
__________________________________________________________________________________________________
conv2d_788 (Conv2D)             (None, 56, 56, 64)   18432       add_1219[0][0]                   
__________________________________________________________________________________________________
concatenate_627 (Concatenate)   (None, 56, 56, 64)   0           split_627[0][0]                  
                                                                 split_627[0][1]                  
__________________________________________________________________________________________________
batch_normalization_788 (BatchN (None, 56, 56, 64)   256         conv2d_788[0][0]                 
__________________________________________________________________________________________________
add_1220 (Add)                  (None, 56, 56, 64)   0           concatenate_627[0][0]            
                                                                 batch_normalization_788[0][0]    
__________________________________________________________________________________________________
conv2d_789 (Conv2D)             (None, 28, 28, 64)   36864       add_1220[0][0]                   
__________________________________________________________________________________________________
inverted_residual_965 (Inverted (None, 28, 28, 64)   55936       add_1220[0][0]                   
__________________________________________________________________________________________________
batch_normalization_789 (BatchN (None, 28, 28, 64)   256         conv2d_789[0][0]                 
__________________________________________________________________________________________________
add_1221 (Add)                  (None, 28, 28, 64)   0           inverted_residual_965[0][0]      
                                                                 batch_normalization_789[0][0]    
__________________________________________________________________________________________________
flatten_321 (Flatten)           (None, 50176)        0           add_1221[0][0]                   
__________________________________________________________________________________________________
dropout_321 (Dropout)           (None, 50176)        0           flatten_321[0][0]                
__________________________________________________________________________________________________
dense_322 (Dense)               (None, 1)            50177       dropout_321[0][0]                
==================================================================================================
Total params: 178,697
Trainable params: 175,937
Non-trainable params: 2,760
__________________________________________________________________________________________________
